train_model/model/3-DNN_model.pth (torch, 194071 bytes, 6 tensors)

fc1.weight f4 [60, 768]
0.025881644 0.035859272 -0.011202517 -0.025145257 0.016870126 -0.016154846 -0.0037050536 0.01926953
-0.013235365 0.017616851 0.004243692 -0.026180852 0.0069124787 0.012675674 0.012110359 0.030511454
-0.019354908 0.027872156 -0.011713445 -0.008438873 -0.015303549 -0.029441938 0.021479841 -0.0078351535
-0.03349201 -0.029524796 0.028522737 0.00033607127 -0.008239849 -0.038103223 -0.03691745 -0.012513521
-0.024382267 0.027698593 -0.029692905 -0.02130601 0.017183475 -0.016795631 -0.0013917277 -0.010878924
-0.008967022 -0.020452045 0.006787364 0.030787151 0.003605568 0.028645175 -0.026898393 -0.011244822
-0.01702861 -0.02385546 -0.030483393 0.015998594 -0.0008400885 0.014357983 0.01851912 -0.031341095
-0.023777105 0.037472874 -0.007806944 0.038557988 0.011704164 -0.015479552 0.016913323 -0.024178274
0.0019030061 -0.025341878 0.024121387 0.01918347 0.029040188 0.018575232 0.01698337 0.018922964
0.013927309 -0.027062459 0.033355404 -0.0100565525 0.008609991 0.013854243 0.028513849 0.018142119
-0.031434588 -0.010493231 0.002871665 0.015347218 -0.019835038 0.0051082605 -0.035825305 0.020321868
0.02898737 0.027846998 0.029750414 0.026617605 -0.008078514 -0.011691072 0.015476536 -0.021289697
-0.0054218755 -0.011334619 0.01521996 0.03857702 -0.035595424 -0.00022255108 -0.002625093 -0.034776736
-0.029137425 0.028628582 -0.0006648326 0.03213484 -0.019519717 -0.033997845 0.022640117 0.015266746
-0.020383716 -0.010519218 -0.013093201 -0.008068461 -0.023029428 -0.0028839528 0.029098911 0.008355362
-0.03008146 -0.0030212482 0.025572417 -0.031575903 0.0035705303 -0.031150265 0.026677204 0.03334876
-0.0058200997 0.016884891 0.015594315 0.012282266 0.01003666 0.0043569654 -0.0033212982 0.018225312
-0.034286212 -0.02746577 0.033669025 0.0117542725 -0.0129481545 0.009300335 -0.0039467295 -0.02190746
-0.01303874 0.022609418 0.025798367 0.030988825 0.011666001 -0.02924729 0.03741112 0.012635949
0.029506886 -0.021116134 -0.036191564 -0.003066287 0.017945908 -0.028872512 0.023780392 -0.02857526
-0.0035297323 -0.015629029 0.008803711 0.018201577 -0.007863145 -0.0022622123 -0.0069641294 -0.023297425
-0.016343543 0.020968536 0.023111135 0.005349475 0.001691587 -0.0014251743 -0.0077882973 0.011766083
-0.0056362622 -0.029721806 0.023094267 0.00058343087 0.020331668 0.010181754 -0.013636824 0.029705903
-0.020707887 -0.037135784 -0.025112914 0.024850888 -0.018768206 -0.037659645 -0.027781395 -0.0018290874
0.0064318767 0.03308845 0.030411262 0.021221463 -0.004676417 0.021918513 0.033043962 0.0043066787
-0.02379397 -0.016102346 -0.008285635 0.008465978 -0.01092775 0.0318134 -0.0073649823 -0.0017723755
-0.008026295 -0.017979337 0.031161461 -0.017150747 0.008994441 0.03186993 0.008282575 0.015710933
0.024372524 0.029583003 -0.005944218 -0.016525423 -0.017351035 -0.00020720964 -0.035344254 -0.014504057
-0.010771695 0.025241513 -0.02016867 0.028771272 -0.030907847 -0.02240321 0.0072038025 0.020905348
-0.011305405 -0.017231988 0.010074519 0.010546225 -0.03139322 0.029520366 -0.024965985 -0.022717407
-0.017467536 -0.027243437 0.027139587 0.02165135 -0.006703866 -0.02296029 0.01660551 0.028216027
-0.00095176627 -0.035997264 0.0030365444 0.032442093 0.005595483 0.033298526 0.0079090595 0.016011192
00000000: be05 d43c 2ce1 123d c38a 37bc 6dfd cdbc
00000010: 3833 8a3c 2b57 84bc 7cd0 72bb 22db 9d3c
00000020: 25d9 58bc 3751 903c ab0e 8b3b 3a79 d6bc
00000030: 1382 e23b a1ad 4f3c 876a 463c 28f3 f93c
00000040: 2f8e 9ebc 2654 e43c c0e9 3fbc 3343 0abc
00000050: bdbb 7abc 3830 f1bc 7ef6 af3c 045f 00bc
00000060: eb2e 09bd fcdd f1bc 84a8 e93c b932 b039
00000070: 6e00 07bc 2012 1cbd c136 17bd 8305 4dbc
00000080: 52bd c7bc 29e8 e23c 893e f3bc f189 aebc
00000090: 5cc4 8c3c fe96 89bc a26a b6ba 843d 32bc
000000a0: 6bea 12bc 0c8b a7bc 8968 de3b 5635 fc3c
000000b0: 654b 6c3b 49a9 ea3c 055a dcbc 343c 38bc
000000c0: 957f 8bbc 876c c3bc 4fb8 f9bc 7c0f 833c
000000d0: 6339 5cba bf3d 6b3c 69b5 973c 855f 00bd
000000e0: 34c8 c2bc 287d 193d 65d1 ffbb fbee 1d3d
000000f0: d2c2 3f3c f29d 7dbc cf8d 8a3c 8411 c6bc
00000100: 4a6e f93a c599 cfbc 379a c53c a726 9d3c
00000110: b0e5 ed3c 162b 983c b520 8b3c 5504 9b3c
00000120: 5e2f 643c 17b2 ddbc ad9f 083d 3dc4 24bc
00000130: eb10 0d3c e8fc 623c e095 e93c c89e 943c
00000140: 8ec1 00bd cdeb 2bbc 8b32 3c3b e672 7b3c
00000150: 177d a2bc 3263 a73b 8ebd 12bd 0c7a a63c
00000160: ec76 ed3c 631f e43c 24b7 f33c 2a0d da3c
00000170: be5b 04bc e98b 3fbc 4c91 7d3c bb67 aebc
00000180: fda9 b1bb d6b4 39bc 245d 793c f002 1e3d
00000190: 82cc 11bd 9a5c 69b9 c109 2cbb 0d72 0ebd
000001a0: 9cb1 eebc 7d86 ea3c 2948 2eba d29f 033d
000001b0: d0e7 9fbc 5341 0bbd c477 b93c 6021 7a3c
000001c0: c0fb a6bc cc58 2cbc de84 56bc 9431 04bc
000001d0: 36a8 bcbc b300 3dbb d760 ee3c eee4 083c
000001e0: 656d f6bc 2200 46bb 3f7d d13c bc55 01bd
000001f0: 8fff 693b d72e ffbc 278a da3c b698 083d
00000200: 89b6 bebb 2f52 8a3c 4c7f 7f3c 8f3b 493c
00000210: ce70 243c e0c4 8e3b 23aa 59bb 404d 953c
00000220: b36f 0cbd e5ff e0bc 88e8 093d fe94 403c
00000230: 7f24 54bc 6f60 183c 9153 81bb 4677 b3bc
00000240: 70a0 55bc 6337 b93c 1957 d33c 47dc fd3c
00000250: c122 3f3c 0398 efbc 673c 193d 0307 4f3c
00000260: 6db8 f13c befb acbc 9b3d 14bd c2f3 48bb
00000270: 4c03 933c 0c86 ecbc 19cf c23c aa16 eabc
00000280: 1553 67bb 7308 80bc 713d 103c 791b 953c
00000290: 6cd4 00bc a041 14bb 5a33 e4bb 3eda bebc
000002a0: e5e2 85bc 35c6 ab3c 9053 bd3c a64a af3b
000002b0: 3eb8 dd3a eacc baba f934 ffbb 87c6 403c
000002c0: 65b0 b8bb 257b f3bc 3030 bd3c 62f1 183a
000002d0: 998e a63c 5fd1 263c fc6c 5fbc cb59 f33c
000002e0: 96a3 a9bc b11b 18bd 99b9 cdbc 1794 cb3c
000002f0: c8bf 99bc 0041 1abd cf95 e3bc fdbd efba
00000300: 7ec2 d23b c187 073d 0a21 f93c a2d8 ad3c
00000310: a13c 99bb 748e b33c 1b59 073d 0a1f 8d3b
00000320: 92eb c2bc 11e9 83bc 79c0 07bc e3b4 0a3c
00000330: 4e0a 33bc c54e 023d f355 f1bb 0e4f e8ba
00000340: b980 03bc 6749 93bc 5246 ff3c b97f 8cbc
00000350: 6b5d 133c 0b8a 023d a3b3 073c 37b4 803c
00000360: e3a8 c73c 0e58 f23c b7c7 c2bb 5360 87bc
00000370: c223 8ebc 6a46 59b9 23c5 10bd 6da2 6dbc
00000380: c37b 30bc 4ac7 ce3c c438 a5bc bbb1 eb3c
00000390: 7432 fdbc f086 b7bc e00d ec3b b141 ab3c
000003a0: 4e3a 39bc 192a 8dbc 980f 253c 13ca 2c3c
000003b0: 2d96 00bd b2d4 f13c 7785 ccbc db19 babc
000003c0: 1418 8fbc a12d dfbc d753 de3c 2c5e b13c
000003d0: 1bac dbbb 3817 bcbc 4708 883c 4c25 e73c
000003e0: f47f 79ba de71 13bd c300 473b 00e2 043d
000003f0: 505a b73b 0964 083d 0095 013c e729 833c

fc1.bias f4 [60]
-0.0075679133 -0.039416015 0.009938245 0.030012302 -0.015873421 0.00113699 -0.01699616 0.03587363
-0.024655547 0.027721096 0.016169501 0.024464864 -0.020003676 -0.009219018 -0.02511917 0.015216212
0.004460888 -0.02154883 0.0281481 -0.0058056125 -0.015214267 0.015984904 0.030910516 -0.031295825
0.0072292658 0.009477474 0.014397752 0.028652184 -0.002028674 0.005116582 -0.007338694 -0.0037074205
0.02950898 -0.021155098 -0.010328643 0.0020661843 0.026177859 -0.023670368 -0.009092314 -0.02396082
0.03417094 -0.008763094 -0.014661854 0.02600369 0.022605425 0.025406694 -0.024982378 0.011380941
0.024931023 -0.00889629 -0.009443156 -0.02881263 -0.04456169 0.03772096 -0.025964921 0.00038973425
-0.020196022 -0.006673759 0.022914356 0.0049733324
00000000: 42fc f7bb b072 21bd 05d4 223c 5cdc f53c
00000010: fa08 82bc 0e07 953a 883b 8bbc 3af0 123d
00000020: 6efa c9bc 5a17 e33c e775 843c 8a6a c83c
00000030: c0de a3bc 5d0b 17bc b8c6 cdbc 6b4d 793c
00000040: a42c 923b 2c87 b0bc d896 e63c 023d bebb
00000050: 4345 79bc c6f2 823c 0d38 fd3c 0d30 00bd
00000060: 7ae3 ec3b 6847 1b3c 8ce4 6b3c fcb7 ea3c
00000070: 80f3 04bb 00a9 a73b 6d79 f0bb 32f8 72bb
00000080: d1bc f13c 754d adbc 7839 29bc d268 073b
00000090: f372 d63c 5ce8 c1bc eef7 14bc 7b49 c4bc
000000a0: d4f6 0b3d 1593 0fbc 4638 70bc b105 d53c
000000b0: 032f b93c b321 d03c d8a7 ccbc 2077 3a3c
000000c0: 253c cc3c bfc1 11bc 78b7 1abc 7708 ecbc
000000d0: 5286 36bd 4b81 1a3d 63b4 d4bc 3f55 cc39
000000e0: 2172 a5bc 8caf dabb e3b6 bb3c 56f7 a23b

fc2.weight f4 [30, 60]
0.06260033 0.11011483 0.033824354 0.04189634 0.14045778 -0.13183033 -0.027670864 0.04389883
-0.039566338 0.017644152 -0.051702615 -0.09762318 0.13271639 0.08582655 -0.09207859 -0.104900315
-0.02568587 -0.073327444 0.2481341 0.03551337 0.1430321 -0.105478995 0.02493285 0.11212957
-0.037483685 -0.0076572564 0.008796591 -0.026694572 0.018746704 0.09068303 0.09411732 -0.027298141
0.010146985 0.14479437 -0.08966327 0.07512787 0.10125467 0.10749805 0.014464554 -0.10614614
0.14309742 0.16395439 0.117363095 0.05829497 -0.14682424 -0.061781608 -0.031744786 0.14278036
-0.11950986 -0.0886526 0.039059103 0.14993577 -0.117585726 0.05588409 -0.029225174 0.060324684
0.066212565 -0.047527406 -0.044137903 0.07062358 0.08793444 -0.031495918 0.09818587 -0.19288562
-0.1975423 0.018912712 -0.07950152 0.15089692 0.13734691 -0.14675468 -0.12773497 0.04837504
0.07207333 -0.15944949 -0.022353219 0.07021704 -0.041081518 0.06344911 -0.21364075 -0.14783178
0.043866366 0.1683608 -0.039730668 -0.029705899 0.123975374 0.12679294 0.023613961 0.22270246
-0.07366284 -0.021045607 0.03279424 -0.026921181 -0.030675234 -0.13441567 0.017072389 0.0036936523
0.05131277 0.09748989 0.048054934 0.06521823 -0.07601022 -0.03391191 0.021640606 0.14581554
-0.054913532 0.0131318765 -0.02633075 0.058977734 -0.04946951 -0.0068603586 -0.12288465 -0.027783094
-0.11404891 0.12868711 0.1287466 0.077123836 -0.009473949 0.059335556 0.0005134535 -0.120391294
-0.012998454 -0.050840087 -0.0821033 0.1105792 0.19040114 0.01954739 -0.0045233085 -0.12941825
-0.15159707 0.091155574 -0.088879175 0.11995852 -0.04520363 -0.04733306 0.03611725 0.07349347
0.16469206 0.15190408 0.042946123 0.044227596 -0.01589441 -0.08466591 0.04061332 0.13122681
-0.16757706 -0.023769647 0.0792966 -0.08154251 0.097349554 -0.047149234 -0.07355757 0.04291174
0.13766755 -0.028911702 -0.061587784 0.060719144 -0.09490356 0.05350492 -0.032978203 0.07789425
-0.0662546 -0.0002949519 0.15426445 0.09121096 -0.019137993 0.030598527 0.0016524299 -0.022069499
0.012304 -0.013751951 0.08315919 0.028392514 -0.0703703 -0.048897926 0.08522346 -0.02676258
0.024731033 -0.0036780771 0.07941002 -0.109604076 -0.09733456 -0.12813994 -0.120419405 0.13370591
0.18984324 -0.016192788 0.06451506 -0.0074866046 -0.0047395816 -0.081120186 -0.08231536 0.06958208
0.13844904 0.017124252 -0.10910604 -0.0028474021 0.061784852 0.034948386 0.08931542 -0.08564175
0.055886585 -0.08136478 -0.078306295 0.08659034 -0.24299656 -0.028604181 0.09652564 -0.1378159
-0.011984676 0.056936517 -0.046748545 0.05134968 -0.09102798 0.15957502 -0.0029393751 0.08794107
0.058008917 0.111501545 0.0030324764 0.085873544 0.011303059 -0.05641628 0.10616849 -0.08578712
-0.12623483 -0.02416116 -0.102073886 0.008948387 0.0615307 0.04424405 -0.002677226 0.022361252
0.06275607 0.08884025 0.0734146 -0.094768345 0.11805652 0.0025854944 0.15176573 -0.0660441
0.07550295 -0.081676304 0.067621656 0.015966078 -0.122179404 -0.0037209725 -0.04794388 -0.054338552
0.14373453 0.047510754 -0.017594138 0.08640081 -0.0069411527 0.054467194 0.0051459596 -0.024075437
00000000: 9a34 803d e283 e13d 688b 0a3d 7f9b 2b3d
00000010: 2ad4 0f3e 88fe 06be 02ae e2bc 42cf 333d
00000020: 5010 22bd 788a 903c 1fc6 53bd a9ee c7bd
00000030: cee6 073e d5c5 af3d b393 bcbd fad5 d6bd
00000040: 2c6b d2bc b32c 96bd de16 7e3e 7876 113d
00000050: 0277 123e 5f05 d8bd fa3f cc3c 30a4 e53d
00000060: 7e88 19bd b9e9 fabb 941f 103c 93ae dabc
00000070: b092 993c 06b8 b93d 95c0 c03d 5aa0 dfbc
00000080: 8a3f 263c fa44 143e 60a1 b7bd a4dc 993d
00000090: 9c5e cf3d f027 dc3d bdfc 6c3c 2663 d9bd
000000a0: 2188 123e a9e3 273e 105c f03d b5c6 6e3d
000000b0: 1859 16be b60e 7dbd d206 02bd 0435 123e
000000c0: 96c1 f4bd 7f8f b5bd 70fc 1f3d c388 193e
000000d0: c9d0 f0bd b7e6 643d a269 efbc 0417 773d
000000e0: 749a 873d 19ac 42bd f2c9 34bd 18a3 903d
000000f0: f916 b43d dd01 01bd ac15 c93d cf83 45be
00000100: 8748 4abe d5ee 9a3c b1d1 a2bd b984 1a3e
00000110: aba4 0c3e dc46 16be f5cc 02be e824 463d
00000120: 2f9b 933d ba46 23be 191e b7bc f4cd 8f3d
00000130: 1845 28bd 9bf1 813d a4c4 5abe 3761 17be
00000140: 38ad 333d c666 2c3e a0bc 22bd c959 f3bc
00000150: cde6 fd3d 02d6 013e 1172 c13c 1d0c 643e
00000160: 8bdc 96bd d667 acbc 4153 063d cf89 dcbc
00000170: a14a fbbc 43a4 09be 65db 8b3c 3411 723b
00000180: 572d 523d c8a8 c73d 40d5 443d 2391 853d
00000190: 3fab 9bbd 37e7 0abd a447 b13c ab50 153e
000001a0: 03ed 60bd 1527 573c 96b3 d7bc a392 713d
000001b0: 8aa0 4abd dccc e0bb f3aa fbbd 5f99 e3bc
000001c0: 7a92 e9bd 8ec6 033e 26d6 033e 1af3 9d3d
000001d0: 9f38 1bbc d709 733d 4899 063a b68f f6bd
000001e0: 78f7 54bc b23d 50bd c625 a8bd 5977 e23d
000001f0: 84f8 423e d921 a03c 4338 94bb 3886 04be
00000200: 433c 1bbe c6af ba3d 4906 b6bd d0ac f53d
00000210: 7127 39bd 50e0 41bd aeef 133d bf83 963d
00000220: 09a5 283e be8c 1b3e 46e8 2f3d ff27 353d
00000230: fe34 82bc 5265 adbd 275a 263d 5260 063e
00000240: 5299 2bbe 90b8 c2bc 4166 a23d c2ff a6bd
00000250: 345f c73d 8e1f 41bd 5aa5 96bd 38c4 2f3d
00000260: b9f8 0c3e 3cd8 ecbc 7943 7cbd a3b4 783d
00000270: cc5c c2bd fa27 5b3d 2714 07bd 0587 9f3d
00000280: 7eb0 87bd c6a3 9ab9 80f7 1d3e d0cc ba3d
00000290: 48c7 9cbc c3a9 fa3c 5996 d83a 18cb b4bc
000002a0: b796 493c dd4f 61bc 5e4f aa3d 6b97 e83c
000002b0: 4e1e 90bd 3149 48bd a389 ae3d 333d dbbc
000002c0: bc98 ca3c e50b 71bb b8a1 a23d 1a78 e0bd
000002d0: 5757 c7bd 1e37 03be 739e f6bd 34ea 083e
000002e0: 4466 423e bda6 84bc 7920 843d 3152 f5bb
000002f0: 7e4e 9bbb 5722 a6bd f594 a8bd 0d81 8e3d
00000300: 96c5 0d3e 2948 8c3c fd72 dfbd 7b9b 3abb
00000310: 1d12 7d3d 0a26 0f3d 01eb b63d f164 afbd
00000320: 55e9 643d 94a2 a6bd 0d5f a0bd 4756 b13d
00000330: 17d4 78be 5153 eabc 3caf c53d 9c1f 0dbe
00000340: 605b 44bc 4436 693d 677b 3fbd 0b54 523d
00000350: e16c babd a267 233e 88a2 40bb 731a b43d
00000360: c29a 6d3d ec5a e43d 83bc 463b 78de af3d
00000370: 7730 393c c214 67bd de6e d93d 28b1 afbd
00000380: b443 01be a0ed c5bc 1d0c d1bd 419c 123c
00000390: 9e07 7c3d 4039 353d 6674 2fbb f22e b73c
000003a0: 4186 803d e1f1 b53d 655a 963d e815 c2bd
000003b0: 9ec7 f13d 6671 293b 7a68 1b3e 2142 87bd
000003c0: 4aa1 9a3d e845 a7bd 397d 8a3d 4bcb 823c
000003d0: 3239 fabd 8fdb 73bb cd60 44bd 1a92 5ebd
000003e0: 252f 133e a39a 423d 9521 90bc e8f2 b03d
000003f0: 9c72 e3bb fe18 5f3d 709f a83b da39 c5bc

fc2.bias f4 [30]
0.03849764 -0.03899512 0.11658969 -0.017814193 0.117460884 -0.04518779 -0.02463746 0.12156495
-0.036319327 0.020176893 0.13055886 0.031764332 -0.07533521 0.04415929 -0.09442896 -0.096268214
-0.10286781 -0.111354776 -0.06431293 0.0077476897 0.08504479 -0.09862386 -0.014169146 -0.04305083
-0.1024828 0.040939674 -0.07073227 0.10928205 0.08103061 -0.04510383
00000000: b4af 1d3d 59b9 1fbd 93c6 ee3d 12ef 91bc
00000010: 558f f03d d516 39bd 80d4 c9bc 0bf7 f83d
00000020: 93c3 14bd 034a a53c 39b1 053e 511b 023d
00000030: 5949 9abd 5fe0 343d f863 c1bd 4528 c5bd
00000040: 5cac d2bd f90d e4bd 7fb6 83bd 55e0 fd3b
00000050: f62b ae3d 4efb c9bd b525 68bc 1156 30bd
00000060: 81e2 d1bd 5cb0 273d 15dc 90bd 44cf df3d
00000070: 60f3 a53d cbbe 38bd

fc3.weight f4 [2, 30]
0.17512192 -0.046373107 0.031807765 0.22883327 -0.10049584 0.1600663 -0.19556595 -0.19925062
0.094455525 0.05178144 -0.102325544 0.19706349 0.08592142 0.08825189 0.23251468 0.013871456
0.0130513245 0.16038364 0.0008490014 -0.023611248 -0.24072883 -0.049273126 -0.012203332 0.21600758
0.14859194 0.17076926 0.03638934 -0.21747696 0.24258316 0.018178657 -0.008371625 0.18456587
-0.19726804 -0.15134615 0.23096846 -0.10375162 -0.11081873 0.2150929 -0.10144345 0.20116225
0.25060934 -0.19314687 0.1433387 0.010373147 -0.10497564 -0.012702787 0.14766997 -0.05849406
-0.0005867403 0.09575346 0.06362073 0.048405547 0.20791753 -0.2688038 -0.10615499 -0.12443236
-0.118719 -0.0062041623 -0.055768374 -0.115114816
00000000: 2953 333e baf1 3dbd dc48 023d 4553 6a3e
00000010: c3d0 cdbd 6ce8 233e 7142 48be 5b08 4cbe
00000020: e671 c13d c618 543d 0e90 d1bd 03cb 493e
00000030: 92f7 af3d 68bd b43d 5418 6e3e 1a45 633c
00000040: 39d5 553c 9c3b 243e 858f 5e3a 606c c1bc
00000050: 9e81 76be 9ed2 49bd 7cf0 47bc 1731 5d3e
00000060: 7c28 183e 23de 2e3e fd0c 153d 48b2 5ebe
00000070: b867 783e 68eb 943c 2429 09bc d6fe 3c3e
00000080: a200 4abe 7cfa 1abe ff82 6c3e bb7b d4bd
00000090: eef4 e2bd 5041 5c3e 95c1 cfbd 7afd 4d3e
000000a0: de4f 803e 4bc8 45be 61c7 123e 22f4 293c
000000b0: 78fd d6bd 5a1f 50bc cc36 173e 7897 6fbd
000000c0: 7acf 19ba 641a c43d 964b 823d e544 463d
000000d0: 55e8 543e a7a0 89be ca67 d9bd 65d6 febd
000000e0: f222 f3bd 494c cbbb 616d 64bd 51c1 ebbd

fc3.bias f4 [2]
0.110177375 0.05236784
00000000: ada4 e13d a97f 563d
