train_model/model/model_new.pth (torch, 7143 bytes, 2 tensors)

fc.weight f4 [2, 768]
00000000: 317d 9e3c 0976 8a3d 76eb 69bd 8313 94bc
00000010: a051 46bd 55af dfbb 5d91 f83c 8dcc 87bc
00000020: 26b6 b8bc 9159 5a3d c75c 103c 2c3d 883d
00000030: 57ec a8bc 61c2 d63c 5856 373d 3a69 013d
00000040: 26c4 29bd 4f2f 0b3b 2c93 8e3d 2500 c23c
00000050: 671f 413d 4e31 cebc 386b 1dbc 8091 2c3c
00000060: aed8 6dbd b555 83bc 0160 773d 7e71 87bc
00000070: b410 9ebb ccc8 12bd d1f0 cbbc 90ca 08bc
00000080: d893 3bbb 9295 00bd a174 ccbc 2a86 813c
00000090: a114 1bbd e2db 0cbd 6edb 23bd 9836 bf3c
000000a0: 526d 613d 7b1f 34bd 16e4 1e3d 4c21 afbc
000000b0: 8676 4c3b 2c37 fbba 5c42 b7b8 987a 923d
000000c0: 7ee3 c03c c9d4 503c b33d f4bb 1421 d0bb
000000d0: 4a81 fcbc e9a0 ed3c 0314 c93c f50b 47bd
000000e0: ea68 4abb 926d e23b b10e 0abd 6c7e c2ba
000000f0: 6cc9 a2bd f60a bb3c e2c1 de3c 546f d63c
00000100: 0167 18bd faa8 03bc 6c35 013c 9eeb cd3c
00000110: 3e8b 04bc e5c7 753b 47a2 83bd 1a91 853c
00000120: 54f9 d7bb b51c 82bd 569f 83bd da02 4a3d
00000130: c278 ad3d 0cf2 b2bc a2c6 aaba a6ce 1bbc
00000140: a569 7f3d 0aa8 053c 6db2 8cbd b8f7 41bc
00000150: 42a4 e83c fd4d f03c 0e61 83bd f81e 3cbd
00000160: 3eef 03bc 252c 97bb 1d28 003d 643d 853c
00000170: e87a 633c 24dd 69bc b9f7 97bc 0181 293d
00000180: 2430 39bd 80a3 efb8 0640 93bc 8bc5 b63c
00000190: e448 d6bb 03c3 b0bc 1a13 b53a c7cf 283d
000001a0: b68a 0ebc 60f8 c33c cf10 41bc 55ef 853d
000001b0: d69c 2c3d cfde 3abd d57c 3b3d 7b47 65bd
000001c0: fe89 823c 9a8e 103d 90b8 1fbc 5b2e 6ebd
000001d0: 1873 4cbd 8ac9 543c 1819 b73c b01f 49bc
000001e0: 6c6a e9bc 054e 0b3d e73a 5f3d 3307 823c
000001f0: 425e 1ebb b4bb bc3b 859f 223d 2337 8f3d
00000200: 2836 10bd a4ec 833d f2b1 5cbc b830 57bd
00000210: 7fda dabb 7311 ffbc 0fb0 763c 2027 98bc
00000220: 9bbe 4c3d ce73 903c 8b69 4a3c 9872 8fbc
00000230: 4d6b 9d3c 07ab f93c af1c 5e3d 53a0 f1bc
00000240: ea89 1ebc 7d85 603d 836f 0bbc c19a d63c
00000250: cf4b 413d 91ee 233b 3796 bf3c e021 94bc
00000260: 7f4e dd3c ad6e 01bc fd98 a43c d8c3 883b
00000270: 70bf b03c bb38 a0bb 5537 56bd e4b9 d4bb
00000280: ff65 75bc ddf6 a23c 0ac6 2cbb 4694 ddbc
00000290: c944 01bd e418 46bd d0c6 073d 49f6 8ebc
000002a0: 0a78 123c c829 83bd 95b6 9dbc 2126 bdbb
000002b0: 4a1c 00bd c084 b53b 09db 45bd c73b 41bc
000002c0: ec2a 22bc 5016 133d 9784 d3bc 1b6a bcbd
000002d0: ef98 883c bf94 b4bb 987f 9e3b 3ae3 ef3c
000002e0: 772c 0a3d a1c5 20bd 502d 383c 4ccb a23d
000002f0: 5ddc 31bd 9498 95bb 5dce 033d 9d4f 073d
00000300: 8e8e 6ebc 0acc 15bd e89a f53c 5392 183c
00000310: dc82 423b 6488 82bc 2d3f 7fbc 8ae3 643c
00000320: 9437 143d de4a 91bd 26d5 af3c ef4a 6bbd
00000330: bc68 013d eea1 8b3d 18f7 9bbc 0667 383d
00000340: c653 30bc a7c4 323c f834 1c3d 9375 4c3c
00000350: 6195 8b3b 362e 233d 1483 16bd 7802 d9bc
00000360: 06eb 083d 7a87 503d 3a97 5a3c d645 123d
00000370: 7092 bb3c a88b 02bd 023c 58bd d49f d0bb
00000380: 6bbb 97bc f4a9 1e3c 3ae3 0b3c a3a1 2f3d
00000390: 394c 003d 9816 73bc fc2c 8a3c daa1 b3bc
000003a0: 1bce 9cbc f663 a43b ab82 343c 5486 df3b
000003b0: ff98 ad3d fdd8 c8bc 3d75 3dbd 8af7 82bd
000003c0: 1c2a c93b 1c2b 193d 8bb1 bb3c 9528 1d3d
000003d0: 41a9 c1bc f316 bbbc 5c85 babc 0695 8e3d
000003e0: 6723 bd3c 1c0d a1bd bc96 d13c b21d 743d
000003f0: ab60 553d 2e88 00bc 1a5d d7bc 08c6 7e3d
0.019346805 0.06760795 -0.05710932 -0.01807571 -0.048417687 -0.006826321 0.030342752 -0.01657703
-0.022547793 0.053308073 0.008811182 0.066522926 -0.020620508 0.026215734 0.04476008 0.031594492
-0.041446827 0.0021237915 0.069616646 0.02368171 0.04714909 -0.025169995 -0.0096080825 0.010532737
-0.05806797 -0.01603208 0.06039429 -0.01653361 -0.0048237685 -0.035836026 -0.024895104 -0.008349076
-0.0028622057 -0.03139264 -0.024957957 0.015811045 -0.03786147 -0.034389384 -0.040004186 0.023341462
0.055035897 -0.043975335 0.03879174 -0.021378182 0.0031198575 -0.0019166223 -8.7384804e-05 0.07152289
0.023545977 0.012746044 -0.007453644 -0.0063515995 -0.030823369 0.029007392 0.024545675 -0.048595387
-0.0030885288 0.0069100345 -0.033705417 -0.0014838702 -0.079485744 0.022832375 0.02719206 0.026176132
-0.037207607 -0.008035893 0.007886272 0.025136765 -0.008089839 0.003750318 -0.06427436 0.016304541
-0.0065910015 -0.06353132 -0.06426875 0.049319126 0.08470298 -0.021843933 -0.0013029168 -0.009509718
0.06235661 0.008157739 -0.068699695 -0.011838846 0.028398637 0.029334063 -0.06414996 -0.04592797
-0.008052645 -0.0046134167 0.031288255 0.016264625 0.013884284 -0.014273915 -0.01855074 0.041382793
-0.045211926 -0.00011426862 -0.017974865 0.022310993 -0.006539451 -0.021577364 0.0013814897 0.041213777
-0.008700063 0.023922145 -0.011783793 0.065397896 0.042141758 -0.045622643 0.045773346 -0.055976372
0.01593494 0.035292245 -0.009748593 -0.058149677 -0.04991445 0.012987504 0.022350833 -0.012275621
-0.028493129 0.034009952 0.054499533 0.015872573 -0.0024165069 0.0057596806 0.03970291 0.06992938
-0.035207897 0.0644162 -0.01347016 -0.052536696 -0.006678879 -0.03113625 0.015056624 -0.018573344
0.049986463 0.017633345 0.012354265 -0.017510697 0.019216204 0.03047706 0.054226574 -0.029495394
-0.009676436 0.054814804 -0.008510473 0.02619684 0.047191437 0.0025014023 0.023387058 -0.01808256
0.027014969 -0.007899922 0.020092482 0.004173737 0.02157566 -0.0048895753 -0.052298862 -0.0064918865
-0.014977931 0.019893104 -0.0026363158 -0.027048241 -0.03155974 -0.04836358 0.033148587 -0.017451422
0.008939752 -0.064044535 -0.019252101 -0.0057723676 -0.03127698 0.0055395067 -0.04830459 -0.011794037
-0.009897929 0.03590995 -0.02582006 -0.091999255 0.016674487 -0.005510896 0.0048369877 0.029283155
0.03373381 -0.039250974 0.011241272 0.07948932 -0.043423045 -0.004565308 0.032179225 0.03303491
-0.014560355 -0.03657154 0.029981092 0.00931223 0.002968005 -0.015934177 -0.015579027 0.013970265
0.036185816 -0.07094358 0.021463942 -0.05744451 0.031594023 0.06817995 -0.019038722 0.045020126
-0.010762161 0.010911143 0.038136452 0.012479204 0.0042597507 0.039838992 -0.0367461 -0.026490435
0.03342726 0.05091045 0.013341719 0.035711132 0.022896975 -0.031871468 -0.052791603 -0.0063667092
-0.018521985 0.009684075 0.008538062 0.04287876 0.03132269 -0.01483693 0.016867153 -0.021927763
-0.019141247 0.005016799 0.011017482 0.006821433 0.08476447 -0.02451753 -0.046254385 -0.063948706
0.006139053 0.037394628 0.022911808 0.03836878 -0.023640277 -0.022838091 -0.022768669 0.06962018
0.02308817 -0.078638285 0.025584571 0.059598632 0.052094143 -0.007844968 -0.026289511 0.062200576

fc.bias f4 [2]
00000000: 75b1 b23a 72a2 3c3c
0.0013633209 0.011513339
