train_model/model/modelpara.pth (torch, 7143 bytes, 2 tensors)

fc.weight f4 [2, 768]
0	0x3c19b95c	0.009382572
1	0x3d7fe793	0.062476706
2	0xbd53b128	-0.05168262
3	0xbc6fcf70	-0.014636859
4	0xbd37bcca	-0.044857778
5	0xbbf58e60	-0.007493779
6	0x3cbcc04b	0.023040911
7	0xbcb3fe93	-0.021971976
8	0xbcbf4040	-0.023346066
9	0x3d21b25e	0.039476745
10	0x3c48f112	0.012264507
11	0x3d6b273f	0.057410475
12	0xbc8aba84	-0.01693464
13	0x3caf3a85	0.021390209
14	0x3d350c6e	0.044201307
15	0x3d137ee7	0.036009695
16	0xbd2a3a2d	-0.041559387
17	0x3b821b8b	0.0039705685
18	0x3d6513af	0.055926975
19	0x3cafc4bf	0.02145612
20	0x3d225b8f	0.0396381
21	0xbc7353d5	-0.01485153
22	0xbba3fa1e	-0.0050041815
23	0x3b90955a	0.0044123353
24	0xbd38693a	-0.045022227
25	0xbc8aedfb	-0.016959181
26	0x3d2eddeb	0.042692106
27	0xbc9bc6a3	-0.019015616
28	0x3b019308	0.0019771475
29	0xbd078093	-0.033081602
30	0xbc79098e	-0.015200032
31	0xbc3c89a0	-0.011507422
32	0xbab31614	-0.0013663196
33	0xbccb97e1	-0.024852695
34	0xbcc275b9	-0.023737775
35	0x3c830612	0.015994105
36	0xbce46476	-0.027879935
37	0xbcfeb672	-0.031092856
38	0xbd38018b	-0.044923346
39	0x3cf92e87	0.030417694
40	0x3d41bcc7	0.047299173
41	0xbd12c41c	-0.035831556
42	0x3d12010f	0.03564554
43	0xbcab8142	-0.020935658
44	0xb94959a6	-0.0001920225
45	0x3b233c14	0.0024907636
46	0x3c1321e5	0.008980249
47	0x3d76aed6	0.06022533
48	0x3c989833	0.018627262
49	0x3c9460b9	0.018112527
50	0xbb971e5d	-0.004611774
51	0xbbb45024	-0.0055027176
52	0xbd05227a	-0.032503583
53	0x3ce694af	0.02814707
54	0x3ca6b0ed	0.020348037
55	0xbd2ddfbd	-0.0424497
56	0x3b66eb0e	0.0035235318
57	0xbba591f6	-0.0050528003
58	0xbcaaaff3	-0.020835852
59	0xbbe12aff	-0.0068715806
60	0xbd877c81	-0.06615544
61	0x3c735b66	0.014853334
62	0x3cd0b79c	0.025478177
63	0x3cdedf36	0.027206045
64	0xbcc28a6c	-0.023747645
65	0xbc5026a1	-0.012704522
66	0x3b9ffff2	0.004882806
67	0x3ca85b58	0.020551369
68	0xbc0a8cf5	-0.008456458
69	0xba941964	-0.0011299071
70	0xbd4ff99f	-0.050775167
71	0x3c85b79f	0.016322909
72	0xbc29a890	-0.01035513
73	0xbd7258d0	-0.05916673
74	0xbd3fff12	-0.046874113
75	0x3d33ff9b	0.043944936
76	0x3d9035ed	0.070415355
77	0xbc771817	-0.015081427
78	0xbbd30194	-0.006439397
79	0xbbad7fb1	-0.005294763
80	0x3d55782d	0.05211656
81	0x3bd97cff	0.006637215
82	0xbd83bfeb	-0.0643309
83	0xbc1bf73c	-0.0095193945
84	0x3c8fb5a9	0.017542677
85	0x3c7ded83	0.015498522
86	0xbd6a8b3b	-0.057261687
87	0xbd3288b0	-0.043587387
88	0xbc130629	-0.008973637
89	0xbb8504c3	-0.0040594055
90	0x3d07340c	0.03300862
91	0x3c72ccc1	0.014819325
92	0x3bed0353	0.0072330623
93	0xbc181d14	-0.0092842765
94	0xbc5cec8c	-0.013484132
95	0x3d1e8925	0.03870501
96	0xbd31afcb	-0.04338054
97	0x3c3e8ef2	0.0116307605
98	0xbc5c395b	-0.013441409
99	0x3cb8df95	0.02256755
100	0xbb4eeab6	-0.0031573004
101	0xbc9303ff	-0.017946241
102	0xbba18714	-0.0049294326
103	0x3d0e6fc0	0.03477454
104	0xbc274ccf	-0.010211184
105	0x3cc428eb	0.023945292
106	0xbc3b4a61	-0.0114313075
107	0x3d6876fe	0.056754105
108	0x3d2c8249	0.042116437
109	0xbd2c422d	-0.042055298
110	0x3d349573	0.04408784
111	0xbd669f37	-0.056304183
112	0x3c191e02	0.009345533
113	0x3cd566ac	0.026049934
114	0xbc166a5b	-0.009180631
115	0xbd39dbac	-0.04537551
116	0xbd246318	-0.040133566
117	0x3b8464fa	0.0040403577
118	0x3cae4a94	0.021275796
119	0xbbbd3ef5	-0.0057753273
120	0xbcf4541d	-0.029825265
121	0x3d187f13	0.037230562
122	0x3d1f7ee8	0.038939387
123	0x3bb3118d	0.0054647387
124	0x3b03301b	0.0020017687
125	0x3b2d7a76	0.0026470697
126	0x3cc62a93	0.024190223
127	0x3d6284c2	0.05530239
128	0xbce7bb01	-0.028287413
129	0x3d31b85b	0.043388706
130	0xbc8795d7	-0.016550941
131	0xbd37ebac	-0.04490249
132	0xbc388dec	-0.011264306
133	0xbd0418dc	-0.03225027
134	0x3c832e7b	0.016013375
135	0xbc9fb8ef	-0.019497363
136	0x3d42e870	0.04758495
137	0x3c9860bb	0.018600812
138	0x3c0a4fee	0.008441908
139	0xbc9391fa	-0.018013943
140	0x3c833bdc	0.016019754
141	0x3cf8d181	0.030373337
142	0x3d4dd7a9	0.050254498
143	0xbcdc7282	-0.02691007
144	0xbc0851eb	-0.008320312
145	0x3d12c5c9	0.035833154
146	0xbc1567d3	-0.009118992
147	0x3c6e0616	0.014527818
148	0x3d208aca	0.03919486
149	0x3adfe8a6	0.0017082884
150	0x3cb5ad05	0.022177229
151	0xbc47730b	-0.0121734245
152	0x3cef1df9	0.029189097
153	0xbbaf73d3	-0.0053543835
154	0x3cdf36ce	0.027247813
155	0xbb263a17	-0.0025364214
156	0x3c06a854	0.0082188435
157	0xbb731262	-0.0037089814
158	0xbd34218d	-0.04397731
159	0xbbe43dbc	-0.006965367
160	0xbc8514c6	-0.016245257
161	0x3c9bea55	0.019032637
162	0x3a531055	0.0008051445
163	0xbcaef1c4	-0.021355517
164	0xbd0235b4	-0.031789497
165	0xbd2b8658	-0.041876167
166	0x3cbad47a	0.022806395
167	0xbc861ca4	-0.016371079
168	0x3c57866c	0.013154607
169	0xbd710fe6	-0.058853053
170	0xbc2eb74b	-0.010663818
171	0xbbaaf3e3	-0.005217062
172	0xbcdbc3e5	-0.026826808
173	0xbac6798c	-0.0015142425
174	0xbd1eadc3	-0.03873993
175	0xbc2d8b7f	-0.0105923405
176	0xbbe2264c	-0.006901538
177	0x3d0036dc	0.031302318
178	0xbcd506b0	-0.026004165
179	0xbd8dd09f	-0.06924557
180	0x3c017f7b	0.007903929
181	0xbbbfe692	-0.0058563435
182	0x3b18b7f7	0.002330301
183	0x3cfceaed	0.03087374
184	0x3d0137a3	0.0315472
185	0xbd2315f0	-0.039815843
186	0x3c0a6d76	0.008448949
187	0x3d96434d	0.07337055
188	0xbd0907a7	-0.033454563
189	0xbbb8d5df	-0.00564073
190	0x3cf1558f	0.029459743
191	0x3d03ef41	0.032210592
192	0xbc80129f	-0.01563388
193	0xbd285037	-0.041092124
194	0x3cb520d0	0.022110373
195	0x3bcb7468	0.006208945
196	0x3beca3a0	0.007221654
197	0xbc90bf7d	-0.017669434
198	0xbc663e3b	-0.014052923
199	0x3c83d7d5	0.016094128
200	0x3d1117b3	0.035422992
201	0xbd6574d6	-0.056019627
202	0x3c58e07f	0.013237118
203	0xbd38e425	-0.04513945
204	0x3cd227ac	0.025653683
205	0x3d738504	0.059453025
206	0xbcaaa3f4	-0.020830132
207	0x3d259329	0.040423546
208	0xbbec9fff	-0.0072212215
209	0x3c64a6e9	0.01395581
210	0x3d11f3d4	0.035632923
211	0x3c84ae2d	0.016196335
212	0xbb95ae78	-0.0045679174
213	0x3d0de6fb	0.03464411
214	0xbd0ae831	-0.03391284
215	0xbcaf4a99	-0.021397876
216	0x3cf4a52c	0.029863916
217	0x3d4b6d43	0.049664747
218	0x3c817658	0.015803501
219	0x3ce9e201	0.02855015
220	0x3cc543be	0.024080154
221	0xbcb23c0b	-0.021757146
222	0xbd4480f9	-0.04797456
223	0xbc916723	-0.017749375
224	0xbc41f957	-0.011839232
225	0x3c905218	0.01761727
226	0x3c0559ca	0.008139083
227	0x3d2804dd	0.041020263
228	0x3d0199da	0.031640865
229	0xbc69b9b9	-0.014265471
230	0x3c7aa566	0.015298223
231	0xbcd3bb17	-0.025846047
232	0xbca2e5e5	-0.019885013
233	0x3ad0d37c	0.0015932168
234	0x3b891ed3	0.0041845827
235	0x3c1123db	0.008858646
236	0x3d9ba3d0	0.07599604
237	0xbc902c02	-0.01759911
238	0xbd20f5a8	-0.039296776
239	0xbd71e2a3	-0.05905403
240	0x3c04386e	0.0080700945
241	0x3cee100b	0.029060384
242	0x3c6a77ce	0.01431079
243	0x3d15554a	0.03645829
244	0xbca5b0a9	-0.02022584
245	0xbcb95f9e	-0.022628602
246	0xbcb4de65	-0.022078702
247	0x3d89dfff	0.06732177
248	0x3c8ce995	0.017201224
249	0xbd845b80	-0.06462765
250	0x3cbab264	0.022790141
251	0x3d63c0b1	0.055603687
252	0x3d4f119e	0.05055391
253	0xbc84cb82	-0.016210321
254	0xbca102ed	-0.019654715
255	0x3d56685d	0.052345622

fc.bias f4 [2]
0	0x3b0e0cc4	0.002167509
1	0x3c2f7570	0.010709152
